{
    "format": "layers-model",
    "generatedBy": "keras v2.12.0",
    "convertedBy": "TensorFlow.js Converter v4.4.0",
    "modelTopology": {
      "keras_version": "2.12.0",
      "backend": "tensorflow",
      "model_config": {
        "class_name": "Functional",
        "config": {
          "name": "multi_disease_model",
          "layers": [
            {
              "class_name": "InputLayer",
              "config": {
                "batch_input_shape": [null, 20],
                "dtype": "float32",
                "sparse": false,
                "ragged": false,
                "name": "input_features"
              },
              "name": "input_features",
              "inbound_nodes": []
            },
            {
              "class_name": "Dense",
              "config": {
                "name": "shared_hidden_1",
                "trainable": true,
                "dtype": "float32",
                "units": 64,
                "activation": "relu",
                "use_bias": true,
                "kernel_initializer": {
                  "class_name": "GlorotUniform",
                  "config": {
                    "seed": null
                  }
                },
                "bias_initializer": {
                  "class_name": "Zeros",
                  "config": {}
                },
                "kernel_regularizer": null,
                "bias_regularizer": null,
                "activity_regularizer": null,
                "kernel_constraint": null,
                "bias_constraint": null
              },
              "name": "shared_hidden_1",
              "inbound_nodes": [
                [
                  ["input_features", 0, 0, {}]
                ]
              ]
            },
            {
              "class_name": "Dropout",
              "config": {
                "name": "dropout_1",
                "trainable": true,
                "dtype": "float32",
                "rate": 0.3,
                "noise_shape": null,
                "seed": null
              },
              "name": "dropout_1",
              "inbound_nodes": [
                [
                  ["shared_hidden_1", 0, 0, {}]
                ]
              ]
            },
            {
              "class_name": "Dense",
              "config": {
                "name": "shared_hidden_2",
                "trainable": true,
                "dtype": "float32",
                "units": 32,
                "activation": "relu",
                "use_bias": true,
                "kernel_initializer": {
                  "class_name": "GlorotUniform",
                  "config": {
                    "seed": null
                  }
                },
                "bias_initializer": {
                  "class_name": "Zeros",
                  "config": {}
                },
                "kernel_regularizer": null,
                "bias_regularizer": null,
                "activity_regularizer": null,
                "kernel_constraint": null,
                "bias_constraint": null
              },
              "name": "shared_hidden_2",
              "inbound_nodes": [
                [
                  ["dropout_1", 0, 0, {}]
                ]
              ]
            },
            {
              "class_name": "Dropout",
              "config": {
                "name": "dropout_2",
                "trainable": true,
                "dtype": "float32",
                "rate": 0.2,
                "noise_shape": null,
                "seed": null
              },
              "name": "dropout_2",
              "inbound_nodes": [
                [
                  ["shared_hidden_2", 0, 0, {}]
                ]
              ]
            },
            {
              "class_name": "Dense",
              "config": {
                "name": "parkinsons_hidden",
                "trainable": true,
                "dtype": "float32",
                "units": 16,
                "activation": "relu",
                "use_bias": true,
                "kernel_initializer": {
                  "class_name": "GlorotUniform",
                  "config": {
                    "seed": null
                  }
                },
                "bias_initializer": {
                  "class_name": "Zeros",
                  "config": {}
                },
                "kernel_regularizer": null,
                "bias_regularizer": null,
                "activity_regularizer": null,
                "kernel_constraint": null,
                "bias_constraint": null
              },
              "name": "parkinsons_hidden",
              "inbound_nodes": [
                [
                  ["dropout_2", 0, 0, {}]
                ]
              ]
            },
            {
              "class_name": "Dense",
              "config": {
                "name": "ckd_hidden",
                "trainable": true,
                "dtype": "float32",
                "units": 16,
                "activation": "relu",
                "use_bias": true,
                "kernel_initializer": {
                  "class_name": "GlorotUniform",
                  "config": {
                    "seed": null
                  }
                },
                "bias_initializer": {
                  "class_name": "Zeros",
                  "config": {}
                },
                "kernel_regularizer": null,
                "bias_regularizer": null,
                "activity_regularizer": null,
                "kernel_constraint": null,
                "bias_constraint": null
              },
              "name": "ckd_hidden",
              "inbound_nodes": [
                [
                  ["dropout_2", 0, 0, {}]
                ]
              ]
            },
            {
              "class_name": "Dense",
              "config": {
                "name": "alzheimers_hidden",
                "trainable": true,
                "dtype": "float32",
                "units": 16,
                "activation": "relu",
                "use_bias": true,
                "kernel_initializer": {
                  "class_name": "GlorotUniform",
                  "config": {
                    "seed": null
                  }
                },
                "bias_initializer": {
                  "class_name": "Zeros",
                  "config": {}
                },
                "kernel_regularizer": null,
                "bias_regularizer": null,
                "activity_regularizer": null,
                "kernel_constraint": null,
                "bias_constraint": null
              },
              "name": "alzheimers_hidden",
              "inbound_nodes": [
                [
                  ["dropout_2", 0, 0, {}]
                ]
              ]
            },
            {
              "class_name": "Dense",
              "config": {
                "name": "parkinsons_output",
                "trainable": true,
                "dtype": "float32",
                "units": 1,
                "activation": "sigmoid",
                "use_bias": true,
                "kernel_initializer": {
                  "class_name": "GlorotUniform",
                  "config": {
                    "seed": null
                  }
                },
                "bias_initializer": {
                  "class_name": "Zeros",
                  "config": {}
                },
                "kernel_regularizer": null,
                "bias_regularizer": null,
                "activity_regularizer": null,
                "kernel_constraint": null,
                "bias_constraint": null
              },
              "name": "parkinsons_output",
              "inbound_nodes": [
                [
                  ["parkinsons_hidden", 0, 0, {}]
                ]
              ]
            },
            {
              "class_name": "Dense",
              "config": {
                "name": "ckd_output",
                "trainable": true,
                "dtype": "float32",
                "units": 1,
                "activation": "sigmoid",
                "use_bias": true,
                "kernel_initializer": {
                  "class_name": "GlorotUniform",
                  "config": {
                    "seed": null
                  }
                },
                "bias_initializer": {
                  "class_name": "Zeros",
                  "config": {}
                },
                "kernel_regularizer": null,
                "bias_regularizer": null,
                "activity_regularizer": null,
                "kernel_constraint": null,
                "bias_constraint": null
              },
              "name": "ckd_output",
              "inbound_nodes": [
                [
                  ["ckd_hidden", 0, 0, {}]
                ]
              ]
            },
            {
              "class_name": "Dense",
              "config": {
                "name": "alzheimers_output",
                "trainable": true,
                "dtype": "float32",
                "units": 1,
                "activation": "sigmoid",
                "use_bias": true,
                "kernel_initializer": {
                  "class_name": "GlorotUniform",
                  "config": {
                    "seed": null
                  }
                },
                "bias_initializer": {
                  "class_name": "Zeros",
                  "config": {}
                },
                "kernel_regularizer": null,
                "bias_regularizer": null,
                "activity_regularizer": null,
                "kernel_constraint": null,
                "bias_constraint": null
              },
              "name": "alzheimers_output",
              "inbound_nodes": [
                [
                  ["alzheimers_hidden", 0, 0, {}]
                ]
              ]
            }
          ],
          "input_layers": [
            ["input_features", 0, 0]
          ],
          "output_layers": [
            ["parkinsons_output", 0, 0],
            ["ckd_output", 0, 0],
            ["alzheimers_output", 0, 0]
          ]
        }
      },
      "training_config": {
        "loss": {
          "parkinsons_output": "binary_crossentropy",
          "ckd_output": "binary_crossentropy",
          "alzheimers_output": "binary_crossentropy"
        },
        "metrics": [
          [
            {
              "class_name": "AUC",
              "config": {
                "name": "auc",
                "dtype": "float32",
                "num_thresholds": 200,
                "curve": "ROC",
                "summation_method": "interpolation",
                "thresholds": [
                  … "multi_label": false,
                "label_weights": null
              }
            }
          ]
        ],
        "weighted_metrics": null,
        "loss_weights": {
          "parkinsons_output": 1.0,
          "ckd_output": 1.0,
          "alzheimers_output": 1.0
        },
        "optimizer_config": {
          "class_name": "Adam",
          "config": {
            "name": "Adam",
            "learning_rate": 0.001,
            "decay": 0.0,
            "beta_1": 0.9,
            "beta_2": 0.999,
            "epsilon": 1e-7,
            "amsgrad": false
          }
        }
      }
    },
    "weightsManifest": [
      {
        "paths": ["weights.bin"],
        "weights": [
          {
            "name": "shared_hidden_1/kernel",
            "shape": [20, 64],
            "dtype": "float32"
          },
          {
            "name": "shared_hidden_1/bias",
            "shape": [64],
            "dtype": "float32"
          },
          {
            "name": "shared_hidden_2/kernel",
            "shape": [64, 32],
            "dtype": "float32"
          },
          {
            "name": "shared_hidden_2/bias",
            "shape": [32],
            "dtype": "float32"
          },
          {
            "name": "parkinsons_hidden/kernel",
            "shape": [32, 16],
            "dtype": "float32"
          },
          {
            "name": "parkinsons_hidden/bias",
            "shape": [16],
            "dtype": "float32"
          },
          {
            "name": "ckd_hidden/kernel",
            "shape": [32, 16],
            "dtype": "float32"
          },
          {
            "name": "ckd_hidden/bias",
            "shape": [16],
            "dtype": "float32"
          },
          {
            "name": "alzheimers_hidden/kernel",
            "shape": [32, 16],
            "dtype": "float32"
          },
          {
            "name": "alzheimers_hidden/bias",
            "shape": [16],
            "dtype": "float32"
          },
          {
            "name": "parkinsons_output/kernel",
            "shape": [16, 1],
            "dtype": "float32"
          },
          {
            "name": "parkinsons_output/bias",
            "shape": [1],
            "dtype": "float32"
          },
          {
            "name": "ckd_output/kernel",
            "shape": [16, 1],
            "dtype": "float32"
          },
          {
            "name": "ckd_output/bias",
            "shape": [1],
            "dtype": "float32"
          },
          {
            "name": "alzheimers_output/kernel",
            "shape": [16, 1],
            "dtype": "float32"
          },
          {
            "name": "alzheimers_output/bias",
            "shape": [1],
            "dtype": "float32"
          }
        ]
      }
    ]
  }